
Number of Hidden Units 256

Loading MNIST dataset.
Model: "sequential"
_________________________________________________________________
Layer (type)                 Output Shape              Param #   
=================================================================
dense (Dense)                (None, 256)               200960    
_________________________________________________________________
activation (Activation)      (None, 256)               0         
_________________________________________________________________
dropout (Dropout)            (None, 256)               0         
_________________________________________________________________
dense_1 (Dense)              (None, 256)               65792     
_________________________________________________________________
activation_1 (Activation)    (None, 256)               0         
_________________________________________________________________
dropout_1 (Dropout)          (None, 256)               0         
_________________________________________________________________
dense_2 (Dense)              (None, 10)                2570      
_________________________________________________________________
activation_2 (Activation)    (None, 10)                0         
=================================================================
Total params: 269,322
Trainable params: 269,322
Non-trainable params: 0
_________________________________________________________________
Train on 60000 samples
Epoch 1/20

  128/60000 [..............................] - ETA: 2:34 - loss: 2.3699 - accuracy: 0.1094
 2688/60000 [>.............................] - ETA: 8s - loss: 1.7148 - accuracy: 0.4423  
…
