
Loading MNIST dataset.
Model: "sequential"
_________________________________________________________________
Layer (type)                 Output Shape              Param #   
=================================================================
conv2d (Conv2D)              (None, 26, 26, 16)        160       
_________________________________________________________________
max_pooling2d (MaxPooling2D) (None, 13, 13, 16)        0         
_________________________________________________________________
conv2d_1 (Conv2D)            (None, 11, 11, 16)        2320      
_________________________________________________________________
max_pooling2d_1 (MaxPooling2 (None, 5, 5, 16)          0         
_________________________________________________________________
conv2d_2 (Conv2D)            (None, 3, 3, 16)          2320      
_________________________________________________________________
flatten (Flatten)            (None, 144)               0         
_________________________________________________________________
dropout (Dropout)            (None, 144)               0         
_________________________________________________________________
dense (Dense)                (None, 10)                1450      
_________________________________________________________________
activation (Activation)      (None, 10)                0         
=================================================================
Total params: 6,250
Trainable params: 6,250
Non-trainable params: 0
_________________________________________________________________
Train on 60000 samples
Epoch 1/2

  128/60000 [..............................] - ETA: 3:57 - loss: 2.3165 - accuracy: 0.1094
  512/60000 [..............................] - ETA: 1:05 - loss: 2.3215 - accuracy: 0.0996
…
        7         1         0         2         5         2         0        11       933        13 
        3         4         1         4        10         1         0        12         0       974 

Confusion matrix Test stats:
Total instances           : 10000
Overall accuracy    (OA)  : 0.97370

Elapsed time: 0:00:20.735426

Loading MNIST dataset.
Model: "sequential_1"
_________________________________________________________________
Layer (type)                 Output Shape              Param #   
=================================================================
conv2d_3 (Conv2D)            (None, 26, 26, 256)       2560      
_________________________________________________________________
max_pooling2d_2 (MaxPooling2 (None, 13, 13, 256)       0         
_________________________________________________________________
conv2d_4 (Conv2D)            (None, 11, 11, 256)       590080    
_________________________________________________________________
max_pooling2d_3 (MaxPooling2 (None, 5, 5, 256)         0         
_________________________________________________________________
conv2d_5 (Conv2D)            (None, 3, 3, 256)         590080    
_________________________________________________________________
flatten_1 (Flatten)          (None, 2304)              0         
_________________________________________________________________
dropout_1 (Dropout)          (None, 2304)              0         
_________________________________________________________________
dense_1 (Dense)              (None, 10)                23050     
_________________________________________________________________
activation_1 (Activation)    (None, 10)                0         
=================================================================
Total params: 1,205,770
Trainable params: 1,205,770
Non-trainable params: 0
_________________________________________________________________
Train on 60000 samples
Epoch 1/2

  128/60000 [..............................] - ETA: 5:57 - loss: 2.2990 - accuracy: 0.0625
  256/60000 [..............................] - ETA: 4:49 - loss: 2.2813 - accuracy: 0.1367
…
